pipe_leak_model.tflite (tflite, 5456 bytes, 3 tensors)

tfl.pseudo_qconst1 i1 [3, 16]
112 -4 17 -112 43 -103 -12 43
70 32 -56 -42 127 -54 -2 -36
-74 -98 92 93 127 109 -19 65
51 -97 -73 -87 -76 6 -62 -102
30 23 -35 94 -30 61 23 -127
-32 2 61 27 -28 -44 -97 -12
00000000: 70fc 1190 2b99 f42b 4620 c8d6 7fca fedc
00000010: b69e 5c5d 7f6d ed41 339f b7a9 b406 c29a
00000020: 1e17 dd5e e23d 1781 e002 3d1b e4d4 9ff4

tfl.pseudo_qconst3 i1 [16, 32]
-21 -49 -36 28 54 -67 31 -127
-25 -21 37 24 -16 6 -11 35
9 62 84 -17 -23 -70 -19 79
15 38 36 -44 44 20 14 33
38 -18 -41 -27 93 20 -92 40
62 -79 -23 23 -51 -35 -13 -8
-21 -88 -45 -127 64 -35 56 -47
72 19 -100 -24 -29 -21 -62 67
74 -27 -40 51 -82 -24 84 36
-1 -15 88 -30 -21 -61 76 100
-41 127 -47 71 1 -50 -59 -13
-11 40 101 76 38 -29 84 33
80 106 127 10 59 81 -35 99
108 76 -31 91 72 18 86 -45
39 -29 -15 -16 108 90 94 -17
88 -33 -37 74 53 50 -62 35
15 42 -11 13 -20 36 98 -14
53 7 16 49 20 43 -24 115
-50 127 -1 63 30 -42 18 81
-41 53 112 -28 28 67 72 -26
117 100 101 58 -25 76 35 100
127 106 -18 82 -31 -16 3 -47
-32 -10 -2 -5 60 17 56 -34
-10 31 31 72 31 18 33 14
-90 -106 -45 62 -39 19 -17 -61
-63 -50 30 52 -98 29 53 -37
6 55 -111 -80 -85 25 53 -124
-15 -33 -47 -2 -127 -58 -71 -117
-8 -26 21 49 -6 -13 57 17
-10 1 99 5 63 14 20 74
19 127 -76 119 -38 -42 -46 83
-72 83 64 -18 -16 52 114 46
00000000: ebcf dc1c 36bd 1f81 e7eb 2518 f006 f523
00000010: 093e 54ef e9ba ed4f 0f26 24d4 2c14 0e21
00000020: 26ee d7e5 5d14 a428 3eb1 e917 cddd f3f8
00000030: eba8 d381 40dd 38d1 4813 9ce8 e3eb c243
00000040: 4ae5 d833 aee8 5424 fff1 58e2 ebc3 4c64
00000050: d77f d147 01ce c5f3 f528 654c 26e3 5421
00000060: 506a 7f0a 3b51 dd63 6c4c e15b 4812 56d3
00000070: 27e3 f1f0 6c5a 5eef 58df db4a 3532 c223
00000080: 0f2a f50d ec24 62f2 3507 1031 142b e873
00000090: ce7f ff3f 1ed6 1251 d735 70e4 1c43 48e6
000000a0: 7564 653a e74c 2364 7f6a ee52 e1f0 03d1
000000b0: e0f6 fefb 3c11 38de f61f 1f48 1f12 210e
000000c0: a696 d33e d913 efc3 c1ce 1e34 9e1d 35db
000000d0: 0637 91b0 ab19 3584 f1df d1fe 81c6 b98b
000000e0: f8e6 1531 faf3 3911 f601 6305 3f0e 144a
000000f0: 137f b477 dad6 d253 b853 40ee f034 722e

tfl.pseudo_qconst5 i1 [32, 20]
-127 28 -1 -30 26 -3 41 16
24 41 40 6 -13 1 4 9
11 -20 26 -41 -127 10 3 -21
-35 26 -41 17 1 -4 -2 -23
-37 -2 -8 20 -9 -31 6 -27
-127 47 16 -3 -6 10 -22 4
8 -10 -32 37 26 -17 19 -36
-14 0 14 22 78 115 81 -4
-68 -25 52 -83 -43 -67 0 57
117 46 127 80 15 27 -15 101
-65 -127 23 23 44 -34 -15 0
-4 -21 -26 3 -4 -11 -12 8
-39 7 -8 12 -127 59 -13 20
-2 16 -61 -9 -48 -8 28 -14
27 14 17 50 4 19 16 -39
127 20 -5 23 -11 10 -10 0
6 7 -10 13 5 -4 13 12
-1 -10 2 -9 -127 36 -15 11
-17 -22 16 2 -5 -16 1 5
13 -2 -2 -11 -14 8 12 39
-127 26 22 -8 -12 -14 -10 18
-24 19 -10 -16 3 16 -10 6
-33 12 -25 5 -127 -28 -6 13
14 -17 -1 2 -5 -1 17 11
-5 1 -9 8 -19 9 -7 -11
127 31 12 1 22 -3 15 -18
6 -22 -5 11 18 26 2 -16
8 -17 9 -1 -101 97 -35 -61
53 -40 44 -15 16 -41 -127 39
73 -39 -87 8 -67 -52 -48 19
127 95 -34 28 -55 -8 41 -7
7 15 34 60 -21 -33 9 -12
00000000: 811c ffe2 1afd 2910 1829 2806 f301 0409
00000010: 0bec 1ad7 810a 03eb dd1a d711 01fc fee9
00000020: dbfe f814 f7e1 06e5 812f 10fd fa0a ea04
00000030: 08f6 e025 1aef 13dc f200 0e16 4e73 51fc
00000040: bce7 34ad d5bd 0039 752e 7f50 0f1b f165
00000050: bf81 1717 2cde f100 fceb e603 fcf5 f408
00000060: d907 f80c 813b f314 fe10 c3f7 d0f8 1cf2
00000070: 1b0e 1132 0413 10d9 7f14 fb17 f50a f600
00000080: 0607 f60d 05fc 0d0c fff6 02f7 8124 f10b
00000090: efea 1002 fbf0 0105 0dfe fef5 f208 0c27
000000a0: 811a 16f8 f4f2 f612 e813 f6f0 0310 f606
000000b0: df0c e705 81e4 fa0d 0eef ff02 fbff 110b
000000c0: fb01 f708 ed09 f9f5 7f1f 0c01 16fd 0fee
000000d0: 06ea fb0b 121a 02f0 08ef 09ff 9b61 ddc3
000000e0: 35d8 2cf1 10d7 8127 49d9 a908 bdcc d013
000000f0: 7f5f de1c c9f8 29f9 070f 223c ebdf 09f4
